…
'switch_iterations': 100, 'dataset': 'cifar10', 'random_target': False, 'max_iterations': 1000, 'compress_mode': 2, 'save_path': 'Results', 'use_tanh': True, 'img_resize': None}
Loading data and classification model: cifar10
Total testing data:10000, correct classified data:7797
Using zoo or zoo_ae attack, and batch_size is not set.
Set batch_size to 128.
Encoder model:
_________________________________________________________________
Layer (type)                 Output Shape              Param #   
=================================================================
conv2d_4 (Conv2D)            (None, 32, 32, 16)        448       
_________________________________________________________________
activation_7 (Activation)    (None, 32, 32, 16)        0         
_________________________________________________________________
max_pooling2d_2 (MaxPooling2 (None, 16, 16, 16)        0         
_________________________________________________________________
conv2d_5 (Conv2D)            (None, 16, 16, 16)        2320      
_________________________________________________________________
activation_8 (Activation)    (None, 16, 16, 16)        0         
_________________________________________________________________
max_pooling2d_3 (MaxPooling2 (None, 8, 8, 16)          0         
_________________________________________________________________
conv2d_6 (Conv2D)            (None, 8, 8, 3)           435       
=================================================================
Total params: 3,203
Trainable params: 3,203
Non-trainable params: 0
_________________________________________________________________
Decoder model:
_________________________________________________________________
Layer (type)                 Output Shape              Param #   
=================================================================
sequential_1 (Sequential)    (None, 8, 8, 3)           3203      
_________________________________________________________________
conv2d_7 (Conv2D)            (None, 8, 8, 16)          448       
_________________________________________________________________
activation_9 (Activation)    (None, 8, 8, 16)          0         
_________________________________________________________________
up_sampling2d (UpSampling2D) (None, 16, 16, 16)        0         
_________________________________________________________________
conv2d_8 (Conv2D)            (None, 16, 16, 16)        2320      
_________________________________________________________________
activation_10 (Activation)   (None, 16, 16, 16)        0         
_________________________________________________________________
up_sampling2d_1 (UpSampling2 (None, 32, 32, 16)        0         
_________________________________________________________________
conv2d_9 (Conv2D)            (None, 32, 32, 3)         435       
=================================================================
Total params: 6,406
Trainable params: 6,406
Non-trainable params: 0
_________________________________________________________________
codec/cifar10_2
Encoder summaries
_________________________________________________________________
Layer (type)                 Output Shape              Param #   
=================================================================
conv2d_4 (Conv2D)            (None, 32, 32, 16)        448       
_________________________________________________________________
activation_7 (Activation)    (None, 32, 32, 16)        0         
_________________________________________________________________
max_pooling2d_2 (MaxPooling2 (None, 16, 16, 16)        0         
_________________________________________________________________
conv2d_5 (Conv2D)            (None, 16, 16, 16)        2320      
_________________________________________________________________
activation_8 (Activation)    (None, 16, 16, 16)        0         
_________________________________________________________________
max_pooling2d_3 (MaxPooling2 (None, 8, 8, 16)          0         
_________________________________________________________________
conv2d_6 (Conv2D)            (None, 8, 8, 3)           435       
=================================================================
Total params: 3,203
Trainable params: 3,203
Non-trainable params: 0
_________________________________________________________________
Decoder summaries
_________________________________________________________________
Layer (type)                 Output Shape              Param #   
=================================================================
conv2d_7 (Conv2D)            (None, 8, 8, 16)          448       
_________________________________________________________________
activation_9 (Activation)    (None, 8, 8, 16)          0         
_________________________________________________________________
up_sampling2d (UpSampling2D) (None, 16, 16, 16)        0         
_________________________________________________________________
conv2d_8 (Conv2D)            (None, 16, 16, 16)        2320      
_________________________________________________________________
activation_10 (Activation)   (None, 16, 16, 16)        0         
_________________________________________________________________
up_sampling2d_1 (UpSampling2 (None, 32, 32, 16)        0         
_________________________________________________________________
conv2d_9 (Conv2D)            (None, 32, 32, 3)         435       
=================================================================
Total params: 3,203
Trainable params: 3,203
Non-trainable params: 0
_________________________________________________________________
(None, 8, 8, 3)
Using autoencoder, set the attack image size to:8
[Info][Start]0: test_index:0, true label:8, target label:0
[Info][AE] MSE:0.0065
[Info][Iter] iter:0, const:10.0, cost:0, time:0.000, size:(1, 8, 8, 3), loss:255.03, real:9.4062e-12, other:0.99999, loss1:253.9, loss2:1.133450985
…
